Model
Model: "sequential"
________________________________________________________________________________
Layer (type)                        Output Shape                    Param #     
================================================================================
dense (Dense)                       (None, 2048)                    569344      
________________________________________________________________________________
dropout (Dropout)                   (None, 2048)                    0           
________________________________________________________________________________
batch_normalization (BatchNormaliza (None, 2048)                    8192        
________________________________________________________________________________
dense_1 (Dense)                     (None, 1024)                    2098176     
________________________________________________________________________________
dropout_1 (Dropout)                 (None, 1024)                    0           
________________________________________________________________________________
batch_normalization_1 (BatchNormali (None, 1024)                    4096        
________________________________________________________________________________
dense_2 (Dense)                     (None, 512)                     524800      
________________________________________________________________________________
dropout_2 (Dropout)                 (None, 512)                     0           
________________________________________________________________________________
batch_normalization_2 (BatchNormali (None, 512)                     2048        
________________________________________________________________________________
dense_3 (Dense)                     (None, 64)                      32832       
________________________________________________________________________________
dropout_3 (Dropout)                 (None, 64)                      0           
________________________________________________________________________________
batch_normalization_3 (BatchNormali (None, 64)                      256         
________________________________________________________________________________
dense_4 (Dense)                     (None, 10)                      650         
================================================================================
Total params: 3,240,394
Trainable params: 3,233,098
Non-trainable params: 7,296
________________________________________________________________________________


