Model
Model: "sequential"
________________________________________________________________________________
Layer (type)                        Output Shape                    Param #     
================================================================================
dense (Dense)                       (None, 2048)                    569344      
________________________________________________________________________________
dropout (Dropout)                   (None, 2048)                    0           
________________________________________________________________________________
batch_normalization (BatchNormaliza (None, 2048)                    8192        
________________________________________________________________________________
dense_1 (Dense)                     (None, 512)                     1049088     
________________________________________________________________________________
dropout_1 (Dropout)                 (None, 512)                     0           
________________________________________________________________________________
batch_normalization_1 (BatchNormali (None, 512)                     2048        
________________________________________________________________________________
dense_2 (Dense)                     (None, 128)                     65664       
________________________________________________________________________________
dropout_2 (Dropout)                 (None, 128)                     0           
________________________________________________________________________________
batch_normalization_2 (BatchNormali (None, 128)                     512         
________________________________________________________________________________
dense_3 (Dense)                     (None, 64)                      8256        
________________________________________________________________________________
dropout_3 (Dropout)                 (None, 64)                      0           
________________________________________________________________________________
batch_normalization_3 (BatchNormali (None, 64)                      256         
________________________________________________________________________________
dense_4 (Dense)                     (None, 10)                      650         
================================================================================
Total params: 1,704,010
Trainable params: 1,698,506
Non-trainable params: 5,504
________________________________________________________________________________


