Model
Model: "sequential"
________________________________________________________________________________
Layer (type)                        Output Shape                    Param #     
================================================================================
dense (Dense)                       (None, 512)                     142336      
________________________________________________________________________________
dropout (Dropout)                   (None, 512)                     0           
________________________________________________________________________________
batch_normalization (BatchNormaliza (None, 512)                     2048        
________________________________________________________________________________
dense_1 (Dense)                     (None, 512)                     262656      
________________________________________________________________________________
dropout_1 (Dropout)                 (None, 512)                     0           
________________________________________________________________________________
batch_normalization_1 (BatchNormali (None, 512)                     2048        
________________________________________________________________________________
dense_2 (Dense)                     (None, 256)                     131328      
________________________________________________________________________________
dropout_2 (Dropout)                 (None, 256)                     0           
________________________________________________________________________________
batch_normalization_2 (BatchNormali (None, 256)                     1024        
________________________________________________________________________________
dense_3 (Dense)                     (None, 256)                     65792       
________________________________________________________________________________
dropout_3 (Dropout)                 (None, 256)                     0           
________________________________________________________________________________
batch_normalization_3 (BatchNormali (None, 256)                     1024        
________________________________________________________________________________
dense_4 (Dense)                     (None, 10)                      2570        
================================================================================
Total params: 610,826
Trainable params: 607,754
Non-trainable params: 3,072
________________________________________________________________________________


