Model
Model: "sequential"
________________________________________________________________________________
Layer (type)                        Output Shape                    Param #     
================================================================================
dense (Dense)                       (None, 2048)                    569344      
________________________________________________________________________________
dropout (Dropout)                   (None, 2048)                    0           
________________________________________________________________________________
batch_normalization (BatchNormaliza (None, 2048)                    8192        
________________________________________________________________________________
dense_1 (Dense)                     (None, 1024)                    2098176     
________________________________________________________________________________
dropout_1 (Dropout)                 (None, 1024)                    0           
________________________________________________________________________________
batch_normalization_1 (BatchNormali (None, 1024)                    4096        
________________________________________________________________________________
dense_2 (Dense)                     (None, 128)                     131200      
________________________________________________________________________________
dropout_2 (Dropout)                 (None, 128)                     0           
________________________________________________________________________________
batch_normalization_2 (BatchNormali (None, 128)                     512         
________________________________________________________________________________
dense_3 (Dense)                     (None, 10)                      1290        
================================================================================
Total params: 2,812,810
Trainable params: 2,806,410
Non-trainable params: 6,400
________________________________________________________________________________


