Model
Model: "sequential"
________________________________________________________________________________
Layer (type)                        Output Shape                    Param #     
================================================================================
dense (Dense)                       (None, 1024)                    284672      
________________________________________________________________________________
dropout (Dropout)                   (None, 1024)                    0           
________________________________________________________________________________
batch_normalization (BatchNormaliza (None, 1024)                    4096        
________________________________________________________________________________
dense_1 (Dense)                     (None, 1024)                    1049600     
________________________________________________________________________________
dropout_1 (Dropout)                 (None, 1024)                    0           
________________________________________________________________________________
batch_normalization_1 (BatchNormali (None, 1024)                    4096        
________________________________________________________________________________
dense_2 (Dense)                     (None, 128)                     131200      
________________________________________________________________________________
dropout_2 (Dropout)                 (None, 128)                     0           
________________________________________________________________________________
batch_normalization_2 (BatchNormali (None, 128)                     512         
________________________________________________________________________________
dense_3 (Dense)                     (None, 64)                      8256        
________________________________________________________________________________
dropout_3 (Dropout)                 (None, 64)                      0           
________________________________________________________________________________
batch_normalization_3 (BatchNormali (None, 64)                      256         
________________________________________________________________________________
dense_4 (Dense)                     (None, 10)                      650         
================================================================================
Total params: 1,483,338
Trainable params: 1,478,858
Non-trainable params: 4,480
________________________________________________________________________________


