Model
Model: "sequential"
________________________________________________________________________________
Layer (type)                        Output Shape                    Param #     
================================================================================
dense (Dense)                       (None, 1024)                    284672      
________________________________________________________________________________
dropout (Dropout)                   (None, 1024)                    0           
________________________________________________________________________________
batch_normalization (BatchNormaliza (None, 1024)                    4096        
________________________________________________________________________________
dense_1 (Dense)                     (None, 512)                     524800      
________________________________________________________________________________
dropout_1 (Dropout)                 (None, 512)                     0           
________________________________________________________________________________
batch_normalization_1 (BatchNormali (None, 512)                     2048        
________________________________________________________________________________
dense_2 (Dense)                     (None, 128)                     65664       
________________________________________________________________________________
dropout_2 (Dropout)                 (None, 128)                     0           
________________________________________________________________________________
batch_normalization_2 (BatchNormali (None, 128)                     512         
________________________________________________________________________________
dense_3 (Dense)                     (None, 256)                     33024       
________________________________________________________________________________
dropout_3 (Dropout)                 (None, 256)                     0           
________________________________________________________________________________
batch_normalization_3 (BatchNormali (None, 256)                     1024        
________________________________________________________________________________
dense_4 (Dense)                     (None, 10)                      2570        
================================================================================
Total params: 918,410
Trainable params: 914,570
Non-trainable params: 3,840
________________________________________________________________________________


