Model
Model: "sequential"
________________________________________________________________________________
Layer (type)                        Output Shape                    Param #     
================================================================================
dense (Dense)                       (None, 256)                     71168       
________________________________________________________________________________
dropout (Dropout)                   (None, 256)                     0           
________________________________________________________________________________
batch_normalization (BatchNormaliza (None, 256)                     1024        
________________________________________________________________________________
dense_1 (Dense)                     (None, 64)                      16448       
________________________________________________________________________________
dropout_1 (Dropout)                 (None, 64)                      0           
________________________________________________________________________________
batch_normalization_1 (BatchNormali (None, 64)                      256         
________________________________________________________________________________
dense_2 (Dense)                     (None, 10)                      650         
================================================================================
Total params: 89,546
Trainable params: 88,906
Non-trainable params: 640
________________________________________________________________________________


