Model
Model: "sequential"
________________________________________________________________________________
Layer (type)                        Output Shape                    Param #     
================================================================================
dense (Dense)                       (None, 512)                     142336      
________________________________________________________________________________
dropout (Dropout)                   (None, 512)                     0           
________________________________________________________________________________
batch_normalization (BatchNormaliza (None, 512)                     2048        
________________________________________________________________________________
dense_1 (Dense)                     (None, 1024)                    525312      
________________________________________________________________________________
dropout_1 (Dropout)                 (None, 1024)                    0           
________________________________________________________________________________
batch_normalization_1 (BatchNormali (None, 1024)                    4096        
________________________________________________________________________________
dense_2 (Dense)                     (None, 256)                     262400      
________________________________________________________________________________
dropout_2 (Dropout)                 (None, 256)                     0           
________________________________________________________________________________
batch_normalization_2 (BatchNormali (None, 256)                     1024        
________________________________________________________________________________
dense_3 (Dense)                     (None, 10)                      2570        
================================================================================
Total params: 939,786
Trainable params: 936,202
Non-trainable params: 3,584
________________________________________________________________________________


