Model
Model: "sequential"
________________________________________________________________________________
Layer (type)                        Output Shape                    Param #     
================================================================================
dense (Dense)                       (None, 1024)                    284672      
________________________________________________________________________________
dropout (Dropout)                   (None, 1024)                    0           
________________________________________________________________________________
batch_normalization (BatchNormaliza (None, 1024)                    4096        
________________________________________________________________________________
dense_1 (Dense)                     (None, 1024)                    1049600     
________________________________________________________________________________
dropout_1 (Dropout)                 (None, 1024)                    0           
________________________________________________________________________________
batch_normalization_1 (BatchNormali (None, 1024)                    4096        
________________________________________________________________________________
dense_2 (Dense)                     (None, 512)                     524800      
________________________________________________________________________________
dropout_2 (Dropout)                 (None, 512)                     0           
________________________________________________________________________________
batch_normalization_2 (BatchNormali (None, 512)                     2048        
________________________________________________________________________________
dense_3 (Dense)                     (None, 10)                      5130        
================================================================================
Total params: 1,874,442
Trainable params: 1,869,322
Non-trainable params: 5,120
________________________________________________________________________________


