Model
Model: "sequential"
________________________________________________________________________________
Layer (type)                        Output Shape                    Param #     
================================================================================
dense (Dense)                       (None, 1024)                    284672      
________________________________________________________________________________
dropout (Dropout)                   (None, 1024)                    0           
________________________________________________________________________________
batch_normalization (BatchNormaliza (None, 1024)                    4096        
________________________________________________________________________________
dense_1 (Dense)                     (None, 256)                     262400      
________________________________________________________________________________
dropout_1 (Dropout)                 (None, 256)                     0           
________________________________________________________________________________
batch_normalization_1 (BatchNormali (None, 256)                     1024        
________________________________________________________________________________
dense_2 (Dense)                     (None, 256)                     65792       
________________________________________________________________________________
dropout_2 (Dropout)                 (None, 256)                     0           
________________________________________________________________________________
batch_normalization_2 (BatchNormali (None, 256)                     1024        
________________________________________________________________________________
dense_3 (Dense)                     (None, 256)                     65792       
________________________________________________________________________________
dropout_3 (Dropout)                 (None, 256)                     0           
________________________________________________________________________________
batch_normalization_3 (BatchNormali (None, 256)                     1024        
________________________________________________________________________________
dense_4 (Dense)                     (None, 10)                      2570        
================================================================================
Total params: 688,394
Trainable params: 684,810
Non-trainable params: 3,584
________________________________________________________________________________


