Model
Model: "sequential"
________________________________________________________________________________
Layer (type)                        Output Shape                    Param #     
================================================================================
dense (Dense)                       (None, 2048)                    569344      
________________________________________________________________________________
dropout (Dropout)                   (None, 2048)                    0           
________________________________________________________________________________
batch_normalization (BatchNormaliza (None, 2048)                    8192        
________________________________________________________________________________
dense_1 (Dense)                     (None, 256)                     524544      
________________________________________________________________________________
dropout_1 (Dropout)                 (None, 256)                     0           
________________________________________________________________________________
batch_normalization_1 (BatchNormali (None, 256)                     1024        
________________________________________________________________________________
dense_2 (Dense)                     (None, 256)                     65792       
________________________________________________________________________________
dropout_2 (Dropout)                 (None, 256)                     0           
________________________________________________________________________________
batch_normalization_2 (BatchNormali (None, 256)                     1024        
________________________________________________________________________________
dense_3 (Dense)                     (None, 10)                      2570        
================================================================================
Total params: 1,172,490
Trainable params: 1,167,370
Non-trainable params: 5,120
________________________________________________________________________________


