Model
Model: "sequential"
________________________________________________________________________________
Layer (type)                        Output Shape                    Param #     
================================================================================
dense (Dense)                       (None, 512)                     142336      
________________________________________________________________________________
dropout (Dropout)                   (None, 512)                     0           
________________________________________________________________________________
batch_normalization (BatchNormaliza (None, 512)                     2048        
________________________________________________________________________________
dense_1 (Dense)                     (None, 512)                     262656      
________________________________________________________________________________
dropout_1 (Dropout)                 (None, 512)                     0           
________________________________________________________________________________
batch_normalization_1 (BatchNormali (None, 512)                     2048        
________________________________________________________________________________
dense_2 (Dense)                     (None, 512)                     262656      
________________________________________________________________________________
dropout_2 (Dropout)                 (None, 512)                     0           
________________________________________________________________________________
batch_normalization_2 (BatchNormali (None, 512)                     2048        
________________________________________________________________________________
dense_3 (Dense)                     (None, 10)                      5130        
================================================================================
Total params: 678,922
Trainable params: 675,850
Non-trainable params: 3,072
________________________________________________________________________________


