Model
Model: "sequential"
________________________________________________________________________________
Layer (type)                        Output Shape                    Param #     
================================================================================
dense (Dense)                       (None, 512)                     142336      
________________________________________________________________________________
dropout (Dropout)                   (None, 512)                     0           
________________________________________________________________________________
batch_normalization (BatchNormaliza (None, 512)                     2048        
________________________________________________________________________________
dense_1 (Dense)                     (None, 256)                     131328      
________________________________________________________________________________
dropout_1 (Dropout)                 (None, 256)                     0           
________________________________________________________________________________
batch_normalization_1 (BatchNormali (None, 256)                     1024        
________________________________________________________________________________
dense_2 (Dense)                     (None, 128)                     32896       
________________________________________________________________________________
dropout_2 (Dropout)                 (None, 128)                     0           
________________________________________________________________________________
batch_normalization_2 (BatchNormali (None, 128)                     512         
________________________________________________________________________________
dense_3 (Dense)                     (None, 128)                     16512       
________________________________________________________________________________
dropout_3 (Dropout)                 (None, 128)                     0           
________________________________________________________________________________
batch_normalization_3 (BatchNormali (None, 128)                     512         
________________________________________________________________________________
dense_4 (Dense)                     (None, 10)                      1290        
================================================================================
Total params: 328,458
Trainable params: 326,410
Non-trainable params: 2,048
________________________________________________________________________________


